98pct.pt (torch_old, 2945 bytes, 20 tensors)

weight_ih_l0 f4 [2, 51]
000000 46 1c 03 3e 03 cf 88 3c a9 78 8c 3c b4 6c 11 3d
       0.12803754 0.016700273 0.017147379 0.035504058
000010 89 97 79 3b 8d d8 98 3b d9 22 b3 3b 97 2f ac 3b
       0.0038084707 0.0046644867 0.0054668006 0.0052546966
000020 5c 3e 8f 3b 89 8a d6 3b 89 14 79 3b 78 18 41 3b
       0.0043714475 0.0065472764 0.0038006625 0.0029464047
000030 74 f3 44 3b 22 34 c8 3a f7 12 10 3b 4c 56 16 3b
       0.0030052336 0.0015274326 0.002198396 0.002293962
000040 be f5 ef 3a 1b d9 33 3b bd f1 d1 3a 64 51 88 3b
       0.001830749 0.0027442637 0.0016017478 0.004160093
000050 a5 fc 25 3b 17 d7 f6 3a 6b 20 d2 3a bb 1a 44 3b
       0.002532759 0.0018832412 0.001603139 0.002992316
000060 d8 1b 04 3b 2e f5 21 3c 0a 79 40 3c 9b ce 4e 3c
       0.0020158198 0.009885116 0.011747608 0.012622501
000070 d8 e0 10 3b a7 b5 80 3a e5 aa a4 3a 5b 4a 31 3b
       0.0022106674 0.0009819762 0.0012563138 0.0027052376
000080 3d 09 08 3b 27 34 32 b9 27 de 9d 3a 74 e5 85 3a
       0.002075746 -0.00016994831 0.0012044356 0.0010215477
000090 50 b9 2a 3b 8b 33 08 3b 4a 6d e3 3a 07 a1 13 3a
       0.0026050396 0.0020782675 0.0017351296 0.00056316
0000a0 47 2a ec b9 00 06 36 3b 58 2e 71 39 c9 8f 8a 3a
       -0.00045044927 0.0027774572 0.00023000815 0.0010571416
0000b0 a5 71 e6 3a 77 7c 56 3a 3e 93 34 3b 88 98 ac 3a
       0.0017581476 0.0008181999 0.0027553583 0.0013168016
0000c0 a6 b9 0e 3b 7d 73 37 3a 30 a6 c4 3a 69 71 00 3e
       0.0021778136 0.0006998105 0.0015003141 0.12543263
0000d0 a9 3c 8a 3c 3c 88 8b 3c 27 11 10 3d 08 a9 74 3b
       0.016874628 0.017032735 0.035172608 0.0037332196
0000e0 04 e7 9e 3b 39 93 ab 3b d1 84 b0 3b 75 9c 9b 3b
       0.0048493166 0.005236056 0.0053869267 0.0047488757
0000f0 9c 4c d5 3b 43 92 7c 3b d3 b2 34 3b 72 ad 44 3b
       0.0065093767 0.0038539327 0.0027572408 0.0030010608
000100 33 38 eb 3a 39 05 39 3b dd c4 2d 3b 5f e2 d8 3a
       0.0017945826 0.0028231873 0.0026515045 0.0016546956
000110 e4 a3 46 3b 24 aa d2 3a 5b 03 82 3b 4c 0c 19 3b
       0.0030310089 0.0016072434 0.003967685 0.0023353277
000120 8b 2d d6 3a 78 0a 2a 3b f9 48 19 3b fc ea 0b 3b
       0.0016340477 0.0025946181 0.0023389442 0.0021349778
000130 38 a8 1a 3c 2f ae 57 3c da 01 3d 3c e2 d4 2b 3b
       0.009439521 0.013164087 0.011536086 0.0026219417
000140 94 09 6a 3a cb bb 7e 3a 91 b0 23 3b f4 d8 21 3b
       0.0008927819 0.00097173144 0.0024977068 0.0024695965
000150 37 b0 15 3a 91 7b 9a 3a 8e 1c a3 3a e9 33 12 3b
       0.0005710157 0.0011786093 0.0012444423 0.0022308773
000160 b0 51 e9 3a a8 76 d9 3a 73 06 41 3a d2 b7 e3 b8
       0.0017800834 0.0016591148 0.0007363327 -0.00010858443
000170 55 93 33 3b 77 32 b1 39 40 22 6b 3a 4f bf 15 3b
       0.002740105 0.0003379767 0.0008969642 0.0022849625
000180 b1 61 af 3a 16 39 1b 3b cb ae a9 3a 80 bb da 3a
       0.0013380555 0.002368515 0.0012945769 0.001668796
000190 b3 84 b5 3a ed f2 b9 3a
       0.0013848752 0.0014186777

weight_hh_l0 f4 [2, 2]
000000 98 a3 30 80 a4 81 20 00 3c 18 08 00 c3 a7 04 80
       -4.46679e-39 2.985242e-39 7.43378e-40 -4.27524e-40

bias_ih_l0 f4 [2]
000000 2f 20 0e 3d 71 3e 0c 3d
       0.03469866 0.034239236

bias_hh_l0 f4 [2]
000000 2e 20 0e 3d 21 3e 0c 3d
       0.034698658 0.03423894

weight_ih_l1 f4 [2, 2]
000000 d5 ee d5 3d 48 10 d7 3d d1 fa d6 3d 04 08 d3 3d
       0.10445944 0.10501152 0.10497058 0.10304263

weight_hh_l1 f4 [2, 2]
000000 be 98 08 00 ac ae 99 01 72 6f 04 00 09 da 18 00
       7.89478e-40 5.6453965e-38 4.07321e-40 2.282268e-39

bias_ih_l1 f4 [2]
000000 1b 99 33 3e f2 a0 3b 3e
       0.17538874 0.18323115

bias_hh_l1 f4 [2]
000000 29 98 33 3e e3 9e 3b 3e
       0.17538513 0.18322329

weight_ih_l2 f4 [2, 2]
000000 5b ae a4 3e 13 ca ab 3e 5c 10 f4 3d c6 c8 fa 3d
       0.32164273 0.33552608 0.11917183 0.12245326

weight_hh_l2 f4 [2, 2]
000000 cf c5 1d 00 87 ea 02 80 b2 d2 01 00 b5 0e 0c 80
       2.73419e-39 -2.67804e-40 1.67419e-40 -1.107302e-39

bias_ih_l2 f4 [2]
000000 7c 4f cc 3e 4b 04 14 3f
       0.39904392 0.5781905

bias_hh_l2 f4 [2]
000000 e2 2d cc 3e 4b 04 14 3f
       0.39878756 0.5781905

weight_ih_l3 f4 [2, 2]
000000 db db c1 3e 2a 1b 17 3f 90 07 cb 3e 41 7e 16 3f
       0.3786305 0.59025824 0.39654207 0.587864

weight_hh_l3 f4 [2, 2]
000000 d8 43 26 80 95 18 07 00 90 14 35 80 f4 50 0a 00
       -3.514087e-39 6.51667e-40 -4.874658e-39 9.47395e-40

bias_ih_l3 f4 [2]
000000 0b 16 5e 3f ed 1c 54 3f
       0.86752385 0.8285664

bias_hh_l3 f4 [2]
000000 05 16 5e 3f ed 1c 54 3f
       0.8675235 0.8285664

weight_ih_l4 f4 [2, 2]
000000 2a 2e d0 3b 2c 2e d0 3b 85 8d 38 40 ea 4c 34 40
       0.0063531594 0.0063531604 2.8836377 2.8171945

weight_hh_l4 f4 [2, 2]
000000 a4 c3 08 80 70 0c 91 80 c1 b5 01 00 e9 61 0a 80
       -8.04867e-40 -1.3320609e-38 1.57037e-40 -9.53479e-40

bias_ih_l4 f4 [2]
000000 38 27 d0 3b f0 66 f8 3e
       0.0063523315 0.48516035

bias_hh_l4 f4 [2]
000000 38 27 d0 3b 50 68 f8 3e
       0.0063523315 0.48517084
