98pctimproved.pt (torch_old, 2941 bytes, 20 tensors)

weight_ih_l0 f4 [2, 51]
000000 a7 81 99 bb b7 73 45 3c ac 02 72 3c 0d 80 df 3c
       -0.004684645 0.012051514 0.014771145 0.027282739
000010 b5 d6 48 3b ed ed 78 3b e1 55 92 3b 07 5e 8d 3b
       0.0030645553 0.0037983612 0.004465804 0.0043141874
000020 1d d9 67 3b d9 4b b0 3b 3a 26 4b 3b 69 0f 1f 3b
       0.0035377212 0.0053801355 0.0030998127 0.002427066
000030 cf 48 22 3b 30 ec 9c 3a 0f b9 eb 3a a9 91 f8 3a
       0.0024762636 0.0011972245 0.0017984229 0.0018964309
000040 a1 91 c4 3a 11 f8 0f 3b 9c 04 a9 3a ad 5a 63 3b
       0.0014997014 0.0021967927 0.001289505 0.0034691498
000050 24 68 06 3b 73 24 c8 3a ba d6 a7 3a 51 76 1f 3b
       0.002050885 0.0015269652 0.0012805082 0.0024331997
000060 65 11 d5 3a 42 c2 02 3c 56 e0 1c 3c 7d 5f 2a 3c
       0.0016255794 0.007980885 0.00957497 0.010398743
000070 dc c5 ee 3a 25 94 51 3a e3 a1 82 3a 3f ba 13 3b
       0.0018216926 0.00079947925 0.0009966459 0.0022541431
000080 29 7a df 3a cc c1 5e b9 23 d0 80 3a 59 be 51 3a
       0.0017049956 -0.00021243765 0.0009827655 0.00080010813
000090 4b 0c 10 3b 60 fc e2 3a bf 1e ba 3a e3 89 d7 39
       0.0021979983 0.0017317645 0.0014199837 0.0004111073
0000a0 90 b3 e2 b9 47 2f 16 3b ff 3d 26 39 65 8a 5f 3a
       -0.00043239864 0.0022916363 0.00015854089 0.00085273973
0000b0 bf 59 bc 3a ea 86 2a 3a 7e 65 15 3b 4c 34 8d 3a
       0.0014370008 0.0006505089 0.002279609 0.0010773032
0000c0 4b e3 ed 3a dd 4d 09 3a 17 cb a2 3a b4 cf 99 bb
       0.0018149404 0.0005237738 0.0012420145 -0.0046939496
0000d0 30 99 46 3c 14 07 75 3c e0 ff db 3c 9a 21 48 3b
       0.012121484 0.014955301 0.02685541 0.0030537606
0000e0 aa b6 83 3b 44 9a 8e 3b 6b a3 93 3b ea 61 80 3b
       0.004019578 0.004351886 0.004505565 0.0039179223
0000f0 d7 c2 b1 3b b4 72 54 3b 5b 86 16 3b 41 4c 24 3b
       0.005424838 0.0032417001 0.0022968266 0.0025069865
000100 b0 ab bf 3a c0 01 1b 3b d7 ec 11 3b 82 08 b6 3a
       0.001462331 0.0023652166 0.0022266412 0.0013888034
000110 72 de 22 3b 5d 07 af 3a 18 9a 5a 3b 79 c9 fb 3a
       0.0024851826 0.0013353635 0.0033356007 0.0019209824
000120 5c 70 b1 3a dc a1 0d 3b ef c5 fa 3a da e0 e7 3a
       0.0013537514 0.0021611368 0.0019132475 0.0017690912
000130 26 0a 00 3c 82 9a 32 3c 95 20 1e 3c a3 9c 0f 3b
       0.00781492 0.010901095 0.009651323 0.002191343
000140 8e 04 44 3a ec 45 49 3a 1d e8 09 3b 46 87 07 3b
       0.00074774853 0.00076779607 0.0021042891 0.0020679994
000150 67 35 e8 39 43 49 80 3a 4c f5 85 3a ba a9 f9 3a
       0.00044290276 0.0009787459 0.0010220199 0.0019047775
000160 68 03 c4 3a a0 64 b3 3a 23 9d 18 3a 55 cf f3 b8
       0.0014954628 0.0013686605 0.0005821755 -0.000116257615
000170 b8 cf 15 3b 94 09 8d 39 75 81 44 3a 56 bb f8 3a
       0.0022859406 0.00026900752 0.0007496097 0.0018976729
000180 c2 5b 91 3a e5 dd 01 3b 5e ef 8c 3a 3a b3 b7 3a
       0.0011089968 0.0019816097 0.0010752489 0.0014015206
000190 87 ef 93 3a b0 a0 9c 3a
       0.0011286595 0.0011949744

weight_hh_l0 f4 [2, 2]
000000 d1 5a 29 80 4a a6 1b 00 9f d8 06 00 f2 e7 03 80
       -3.797834e-39 2.539212e-39 6.28722e-40 -3.58713e-40

bias_ih_l0 f4 [2]
000000 cb 34 e8 3c 98 2f e9 3c
       0.028345486 0.028465077

bias_hh_l0 f4 [2]
000000 c9 34 e8 3c 12 2f e9 3c
       0.028345482 0.028464828

weight_ih_l1 f4 [2, 2]
000000 d5 ab 2c 3d 40 16 39 3d 80 51 27 3d dd 59 2b 3d
       0.04215606 0.045187235 0.04084921 0.041833747

weight_hh_l1 f4 [2, 2]
000000 cc 56 07 00 1a a8 82 01 a3 ba 03 00 e9 20 15 00
       6.73985e-40 4.799567e-38 3.42459e-40 1.940351e-39

bias_ih_l1 f4 [2]
000000 ae 3f bd 3d 9e cc c5 3d
       0.092406616 0.09658168

bias_hh_l1 f4 [2]
000000 0a 3e bd 3d 16 c9 c5 3d
       0.09240349 0.09657495

weight_ih_l2 f4 [2, 2]
000000 70 b1 59 3e dd 23 64 3e e5 d0 c9 bc 99 91 d5 bc
       0.21259093 0.22279306 -0.024635741 -0.026070403

weight_hh_l2 f4 [2, 2]
000000 e3 4c 19 00 f6 6a 02 80 a2 91 01 00 42 41 0a 80
       2.323469e-39 -2.22041e-40 1.44079e-40 -9.41765e-40

bias_ih_l2 f4 [2]
000000 05 24 42 3e 43 c9 8b 3d
       0.18959053 0.06825497

bias_hh_l2 f4 [2]
000000 a4 ea 41 3e 43 c9 8b 3d
       0.18937165 0.06825497

weight_ih_l3 f4 [2, 2]
000000 41 30 5c bd 22 bc 84 3d f1 75 da bc 67 8b 95 3d
       -0.053756956 0.06481196 -0.026667567 0.073019795

weight_hh_l3 f4 [2, 2]
000000 5c 86 20 80 6f 16 06 00 cd 20 2d 80 b3 ce 08 00
       -2.986935e-39 5.5906e-40 -4.144364e-39 8.08834e-40

bias_ih_l3 f4 [2]
000000 88 2b d7 3c 53 ad 7a 3c
       0.026265875 0.015300113

bias_hh_l3 f4 [2]
000000 d7 2a d7 3c 53 ad 7a 3c
       0.026265545 0.015300113

weight_ih_l4 f4 [2, 2]
000000 aa 97 05 3f c9 20 04 3f e8 78 04 40 7e a4 01 40
       0.52184546 0.51612526 2.0698795 2.0256648

weight_hh_l4 f4 [2, 2]
000000 0e 7d 07 80 16 4f 7b 80 d1 74 01 00 3a d9 08 80
       -6.8771e-40 -1.1324137e-38 1.33741e-40 -8.1261e-40

bias_ih_l4 f4 [2]
000000 49 8c 71 3f d7 13 54 3d
       0.94354683 0.051776733

bias_hh_l4 f4 [2]
000000 49 8c 71 3f 35 1d 54 3d
       0.94354683 0.051785666
