alphafraud.pt (torch_old, 2947 bytes, 20 tensors)

weight_ih_l0 f4 [2, 51]
00000000: 738a 68bb a605 253c c535 263c 35b0 a63c
00000010: 8042 043b 4b04 2d3b b1a3 503b 7536 463b
00000020: aa3e 1d3b 1839 813b b959 023b 287f e43a
00000030: 9c01 e93a 7dc2 403a 78b8 9e3a 4f16 a73a
00000040: e092 763a 9368 d13a 331e 523a 50ac 2a3b
00000050: 31dc bd3a 4d43 813a 4d50 533a 7049 e93a
00000060: f911 8e3a e1a2 b13b 4a24 db3b 690a f03b
00000070: 48f7 b03a f995 fd39 4dc2 363a a4d5 de3a
00000080: 2b85 a53a 58cb 9cb9 5583 283a 06ba 043a
00000090: 9351 d53a 8abe a33a e64d 853a 2d14 4839
000000a0: 66a0 03ba 6b80 e23a 3efc 14b8 14a9 0c3a
000000b0: 8a61 843a 2537 c339 f292 e33a 36bd 3e3a
000000c0: 9a21 ae3a 12da a039 4351 603a c387 69bb
000000d0: f572 263c 7eaf 263c 5b77 a33c 831f 023b
000000e0: b4d3 363b 9be2 473b aee0 4d3b ac1e 303b
000000f0: 8905 813b 15f4 063b 1c30 d53a 31d7 e93a
00000100: f1fc 753a 157a d93a 7ccf c93a f007 593a
00000110: 4336 ed3a 26f8 573a b2e2 223b 235a ad3a
00000120: 520e 583a 0c88 c53a 6bdc ae3a 3357 993a
00000130: e753 a93b cd37 fd3b 8b30 d93b f296 d73a
00000140: f0e9 dd39 47b8 033a 018b cc3a efcb ca3a
00000150: 7a81 6c39 2626 243a a2b7 303a f1df b43a
00000160: 3094 893a 3e0a 7e3a 77ae a639 3c77 83b9
00000170: 4ea3 e03a eb93 3c38 cd96 e439 f287 b53a
00000180: 3edc 413a 268c c13a 0651 3b3a 54a3 803a
00000190: 6a81 4f3a aeea 533a
-0.0035482913 0.0100721475 0.010144656 0.020347694 0.0020181239 0.0026400264 0.003183585 0.0030244861
0.002399365 0.0039435737 0.0019889905 0.0017432915 0.0017776969 0.00073532 0.0012109419 0.0012747737
0.00094060414 0.00159766 0.00080153643 0.0026042648 0.0014485178 0.0009861976 0.0008060977 0.0017798375
0.0010839097 0.005421028 0.0066876756 0.0073254597 0.001350143 0.0004836766 0.0006971702 0.0017000926
0.0012628188 -0.00029906142 0.00064282614 0.000506312 0.0016274921 0.0012492698 0.001017031 0.00019081002
-0.00050211546 0.0017280703 -3.552087e-05 0.0005365771 0.001009987 0.00037234384 0.0017362519 0.00072761194
0.001328516 0.00030680053 0.0008557031 -0.0035633899 0.010159244 0.010173677 0.019954374 0.0019855208
0.002789718 0.0030500058 0.0031414437 0.002687375 0.0039374274 0.0020592262 0.0016264948 0.0017840621
0.00093836995 0.0016592169 0.0015396918 0.0008279076 0.0018097836 0.0008238576 0.002485436 0.0013225715
0.000824188 0.0015070452 0.0013340836 0.0011698961 0.0051674726 0.0077275992 0.006628101 0.0016448183
0.00042326702 0.0005024713 0.0015605391 0.0015472154 0.00022554948 0.0006261788 0.00067412306 0.001379965
0.0010496434 0.0009690857 0.00031791974 -0.00025075104 0.0017138512 4.4960452e-05 0.00043599904 0.0013849719
0.00073951844 0.0014766499 0.00071455573 0.00098143 0.00079157075 0.0008083981

weight_hh_l0 f4 [2, 2]
00000000: fbe3 2180 f3b2 1600 04f1 0500 dc94 0380
-3.112355e-39 2.084576e-39 5.45638e-40 -3.28907e-40

bias_ih_l0 f4 [2]
00000000: b3e4 a13c 94a6 a03c
0.019762373 0.01961068

bias_hh_l0 f4 [2]
00000000: b1e4 a13c 25a6 a03c
0.019762369 0.019610474

weight_ih_l1 f4 [2, 2]
00000000: 0256 003d 213f 0a3d c565 f43c ef7f fa3c
0.031332023 0.03375161 0.029833684 0.030578582

weight_hh_l1 f4 [2, 2]
00000000: 7960 0600 d0b7 5601 da64 0300 bd91 1100
5.85621e-40 3.943747e-38 3.11685e-40 1.613484e-39

bias_ih_l1 f4 [2]
00000000: c70d a03d 04a9 a73d
0.07815128 0.08186534

bias_hh_l1 f4 [2]
00000000: 690c a03d 08a6 a73d
0.07814867 0.08185965

weight_ih_l2 f4 [2, 2]
00000000: 9989 343e 6266 3d3e 90de 34bc 4089 47bc
0.17630614 0.18496087 -0.011039391 -0.012178719

weight_hh_l2 f4 [2, 2]
00000000: b6a0 1400 eb31 0280 cb66 0100 aa11 0880
1.894362e-39 -2.01578e-40 1.2871e-40 -7.4102e-40

bias_ih_l2 f4 [2]
00000000: 5638 273e c90d de3d
0.16330084 0.10842473

bias_hh_l2 f4 [2]
00000000: ff08 273e c90d de3d
0.16312025 0.10842473

weight_ih_l3 f4 [2, 2]
00000000: 9f41 4d3d b8b9 d33d 93d6 8e3d 3fc6 e23d
0.05011141 0.103381574 0.069745205 0.11072969

weight_hh_l3 f4 [2, 2]
00000000: 00ea 1a80 196f 0500 193d 2580 4be9 0600
-2.471666e-39 4.99032e-40 -3.419831e-39 6.34703e-40

bias_ih_l3 f4 [2]
00000000: 6d02 793e 1c8c 763e
0.24317332 0.24076885

bias_hh_l3 f4 [2]
00000000: 5b02 793e 1c8c 763e
0.24317305 0.24076885

weight_ih_l4 f4 [2, 2]
00000000: e169 e33d 9ad6 d33d 9431 e73f edb0 e23f
0.11104179 0.103436664 1.8062005 1.7710243

weight_hh_l4 f4 [2, 2]
00000000: 037c 0680 8212 6580 294a 0100 82f8 0680
-5.955e-40 -9.282024e-39 1.18439e-40 -6.40161e-40

bias_ih_l4 f4 [2]
00000000: 5754 a53d 5d1e e83e
0.08072727 0.45335665

bias_hh_l4 f4 [2]
00000000: 5754 a53d 571f e83e
0.08072727 0.4533641
