betanet.pt (torch_old, 2941 bytes, 20 tensors)

weight_ih_l0 f4 [2, 51]
00000000: df3c 89bb 37d9 3c3c d8f1 3e3c 28c8 be3c
00000010: 8c26 183b ccad 463b 988a 6f3b c38a 633b
00000020: e8a6 343b 397b 943b 1bca 153b 103e 033b
00000030: dade 053b f47f 5d3a 9055 b63a 28e4 bf3a
00000040: e2bd 8d3a 358c f03a 58bf 713a a4f3 433b
00000050: 2bfc d93a 6c76 943a b51d 733a 5411 063b
00000060: 2c4f a33a 12fc cb3b fecd fb3b 9ff9 093c
00000070: ca25 cb3a 120b 123a 93e5 513a 4add ff3a
00000080: b10d be3a 5792 b3b9 6eb6 413a ee93 183a
00000090: 35dc f43a 8b0d bc3a d732 993a b200 6739
000000a0: 83cd 16ba f51f 023b dfdc 28b8 27df 213a
000000b0: 9503 983a bb5d e039 9fb4 023b c701 5b3a
000000c0: 76e4 c73a 6100 b939 45cb 803a d4df 89bb
000000d0: fd72 3e3c c77e 3f3c d21c bb3c d4b8 153b
000000e0: c9ec 513b 3075 653b 6661 6c3b 4e4e 4a3b
000000f0: b13c 943b 1314 1b3b c4d7 f43a c35b 063b
00000100: 3760 8d3a c6cd f93a 77ab e73a 2390 793a
00000110: 0050 083b df99 783a 5909 3b3b a606 c73a
00000120: 3231 783a 80de e23a 0ce5 c83a dc4c b03a
00000130: 0d7e c23b 8181 113c 599a f93b c27b f73a
00000140: 529a ff39 7586 173a 18c0 ea3a 75bb e83a
00000150: 0d53 8839 a5ca 3c3a 60f1 4a3a fba5 cf3a
00000160: 7926 9e3a 13fa 913a 68f8 bf39 708d 96b9
00000170: 8e12 013b 03f0 5a38 d99e 033a 654c d03a
00000180: 668f 5e3a c326 de3a 9f20 573a 3bd3 933a
00000190: e643 6e3a 6f47 733a
-0.0041881646 0.011526397 0.01165434 0.023288801 0.0023216335 0.0030315993 0.0036551114 0.003472016
0.0027565304 0.004531291 0.002285606 0.0020026006 0.002042702 0.00084495475 0.0013910998 0.0014640139
0.0010814036 0.0018352332 0.0009221933 0.002989986 0.0016630938 0.0011326796 0.0009274141 0.0020457106
0.0012459508 0.0062251175 0.0076844683 0.008421331 0.0015498933 0.00055711076 0.00080069265 0.0019520905
0.001449993 -0.00034250572 0.000738955 0.0005820383 0.001868135 0.0014347298 0.0011688125 0.00022030136
-0.00057526695 0.0019855474 -4.0260024e-05 0.0006174915 0.0011597747 0.00042794444 0.0019944084 0.0008354452
0.0015250582 0.00035286232 0.0009826204 -0.0042075906 0.011624095 0.011687941 0.022840891 0.0022845762
0.0032032004 0.0035012476 0.0036068796 0.0030869427 0.0045238365 0.0023663088 0.0018680026 0.0020501472
0.001078612 0.0019058518 0.0017675002 0.0009520074 0.0020799637 0.0009483378 0.0028539507 0.0015184477
0.000946778 0.0017308742 0.001532705 0.001345064 0.0059354366 0.008880974 0.0076172766 0.0018881487
0.00048752368 0.00057802285 0.0017910032 0.0017756062 0.0002600182 0.0007201827 0.0007741656 0.0015842313
0.0012065909 0.001113715 0.00036615436 -0.0002871561 0.0019694897 5.219878e-05 0.00050209236 0.0015891908
0.0008489996 0.0016948808 0.000820646 0.0011278162 0.0009089097 0.0009280359

weight_hh_l0 f4 [2, 2]
00000000: 4ebf 2680 1ee5 1900 e2ad 0600 92f6 0380
-3.558376e-39 2.378079e-39 6.1339e-40 -3.63959e-40

bias_ih_l0 f4 [2]
00000000: 41f3 b93c ac87 b83c
0.022699 0.02252563

bias_hh_l0 f4 [2]
00000000: 3ff3 b93c 2987 b83c
0.022698997 0.022525387

weight_ih_l1 f4 [2, 2]
00000000: 5c50 133d dab6 1e3d bb5b 0c3d 34d3 0f3d
0.03596531 0.0387486 0.03426717 0.03511353

weight_hh_l1 f4 [2, 2]
00000000: 6e1e 0700 b6ae 7601 63c4 0300 3b11 1400
6.53765e-40 4.5308413e-38 3.45957e-40 1.842891e-39

bias_ih_l1 f4 [2]
00000000: fb5e b63d 4921 bf3d
0.08904835 0.093325205

bias_hh_l1 f4 [2]
00000000: 7b5d b63d e41d bf3d
0.08904549 0.09331873

weight_ih_l2 f4 [2, 2]
00000000: 78d2 4d3e caef 573e dbd6 a8bc 8f62 b6bc
0.20099819 0.21087566 -0.020610264 -0.022263793

weight_hh_l2 f4 [2, 2]
00000000: 898e 1700 b674 0280 8296 0100 c059 0980
2.163348e-39 -2.25539e-40 1.45828e-40 -8.58716e-40

bias_ih_l2 f4 [2]
00000000: 05f9 373e 3ff7 9f3d
0.17966087 0.0781083

bias_hh_l2 f4 [2]
00000000: c6c2 373e 3ff7 9f3d
0.17945394 0.0781083

weight_ih_l3 f4 [2, 2]
00000000: 4332 43bd 0bab 963d 2da1 d5bc 2f7b a63d
-0.047655355 0.073568426 -0.026077831 0.08128964

weight_hh_l3 f4 [2, 2]
00000000: b9d7 1e80 ef29 0600 5e8d 2a80 62db 0700
-2.832452e-39 5.66056e-40 -3.907804e-39 7.21548e-40

bias_ih_l3 f4 [2]
00000000: 84ce 0d3d 64fe e73c
0.034620777 0.028319545

bias_hh_l3 f4 [2]
00000000: 32ce 0d3d 64fe e73c
0.03462047 0.028319545

weight_ih_l4 f4 [2, 2]
00000000: 12a1 a93e 98a8 a53e e03e 0040 5a2b fb3f
0.331307 0.3235519 2.0038376 1.9622605

weight_hh_l4 f4 [2, 2]
00000000: 4d48 0780 3c35 7480 b179 0100 cbeb 0780
-6.68785e-40 -1.0672014e-38 1.3549e-40 -7.27435e-40

bias_ih_l4 f4 [2]
00000000: df5c 1b3f 7643 6b3e
0.60688585 0.22974953

bias_hh_l4 f4 [2]
00000000: df5c 1b3f b045 6b3e
0.60688585 0.22975802
