fraudnet.pt (torch_old, 2941 bytes, 20 tensors)

weight_ih_l0 f4 [2, 51]
0.0071782432 0.96375257 -0.04019904 0.86520857 0.018457891 0.014497825 0.0174675 -0.0083369585
0.010113797 0.0035329126 0.02049017 0.011777364 0.0016292622 0.011484915 0.020818077 -0.0068446286
0.013145038 0.0018944849 0.018498646 0.020561613 0.0072148144 0.018067498 0.00937672 0.01256505
0.019504169 -0.017471857 -0.0006202635 -0.0053095743 0.005060013 0.017013332 0.015708199 0.003980261
0.010960869 0.0223523 0.014487426 0.011156519 0.005430445 0.02114664 0.017463809 -0.0057016057
0.004960694 0.0012674935 0.011174606 -0.023256594 0.009024857 -0.00869069 0.020862963 0.012074922
0.003108194 0.015305961 0.0152742285 0.0027261425 0.77847934 -0.01625981 0.9136965 0.008144494
0.022050524 0.011278987 -0.004215132 0.007642812 -0.0010540973 0.008864649 0.0038779401 0.0060706683
0.009780516 0.00022387387 -0.011926539 0.015577264 -0.005566087 0.012335158 0.022113832 -0.008009377
0.004579664 0.0077779014 0.005588117 0.020808948 -0.015290654 0.006746456 0.0036809833 -0.005882
0.009041397 0.015300114 0.0027352949 0.008728093 0.013968605 0.011018431 0.016637709 0.008854597
0.01809559 0.013756708 -0.00057995145 0.003419078 -0.005417778 0.0042223292 -0.026963865 0.0074865525
-0.017323738 0.014986175 -0.0019642431 -0.004739412 0.0072287237 0.010961908
00000000: 7837 eb3b 7db8 763f c0a7 24bd 4f7e 5d3f
00000010: 0135 973c 4988 6d3c 0118 8f3c bd97 08bc
00000020: 57b4 253c 7088 673b 00db a73c d8f5 403c
00000030: f88c d53a 3a2b 3c3c ac8a aa3c e848 e0bb
00000040: 495e 573c 5d50 f83a 798a 973c d470 a83c
00000050: 406a ec3b 4a02 943c d0a0 193c a4dd 4d3c
00000060: 35c7 9f3c 2421 8fbc 2e99 22ba f0fb adbb
00000070: 77ce a53b 8b5f 8b3c 7bae 803c d96c 823b
00000080: 3795 333c 2c1c b73c ab5c 6d3c d5c9 363c
00000090: e0f1 b13b b83b ad3c 4310 8f3c 89d4 babb
000000a0: 518d a23b 0622 a63a b215 373c 9d84 bebc
000000b0: fedc 133c 6563 0ebc cee8 aa3c e5d5 453c
000000c0: d8b2 4b3b dac5 7a3c c240 7a3c 15a9 323b
000000d0: 6c4a 473f 4b33 85bc 04e8 693f 7c70 053c
000000e0: 4da3 b43c 80cb 383c 171f 8abb 8e70 fa3b
000000f0: a329 8aba 083d 113c 0a25 7e3b 75ec c63b
00000100: 753e 203c afbf 6a39 8867 43bc c837 7f3c
00000110: b963 b6bb 6719 4a3c 1128 b53c c339 03bc
00000120: 0211 963b c4dd fe3b 861c b73b 8777 aa3c
00000130: a785 7abc 6011 dd3b a73c 713b cbbd c0bb
00000140: 5e22 143c 54ad 7a3c a242 333b 4600 0f3c
00000150: 93dc 643c a686 343c ce4b 883c df12 113c
00000160: 343d 943c d163 613c e207 18ba 9c12 603b
00000170: 9e87 b1bb 775b 8a3b 53e3 dcbc c151 f53b
00000180: 83ea 8dbc 9388 753c 88ba 00bb 124d 9bbb
00000190: eede ec3b 9399 333c

weight_hh_l0 f4 [2, 2]
2.5107417e-13 -6.5113e-41 -1.1573e-41 -1.7578861e-08
00000000: 9a57 8d2a 82b5 0080 4320 0080 5300 97b2

bias_ih_l0 f4 [2]
-0.019854795 -0.018153733
00000000: 86a6 a2bc 23b7 94bc

bias_hh_l0 f4 [2]
-0.019854795 -0.018153733
00000000: 86a6 a2bc 23b7 94bc

weight_ih_l1 f4 [2, 2]
0.86145097 0.7856424 0.8653345 0.74446875
00000000: 0d88 5c3f dc1f 493f 9086 5d3f 8195 3e3f

weight_hh_l1 f4 [2, 2]
-1.2358017e-22 -4.1649116e-07 1.1412812e-11 3.7542e-41
00000000: 3666 159b 1c9a dfb4 bcc6 482d a768 0000

bias_ih_l1 f4 [2]
-0.0038546326 -0.0015367594
00000000: 019e 7cbb 176d c9ba

bias_hh_l1 f4 [2]
-0.0038546326 -0.0015367594
00000000: 019e 7cbb 176d c9ba

weight_ih_l2 f4 [2, 2]
0.9982459 0.9674207 -0.6079889 -0.61800814
00000000: 0b8d 7f3f e2a8 773f 29a5 1bbf c835 1ebf

weight_hh_l2 f4 [2, 2]
-2.3985937e-25 5.1554e-41 2.1516039e-11 6.921792e-14
00000000: 3c77 9496 b68f 0000 d041 bd2d 6add 9b29

bias_ih_l2 f4 [2]
-0.008101574 0.5252369
00000000: 77bc 04bc ed75 063f

bias_hh_l2 f4 [2]
-0.008105338 0.5252338
00000000: 40cc 04bc b975 063f

weight_ih_l3 f4 [2, 2]
1.115469 -0.08310311 -0.8244675 1.1197604
00000000: b0c7 8e3f f731 aabd 4d10 53bf 4f54 8f3f

weight_hh_l3 f4 [2, 2]
-1.2987584e-09 -4.4651236e-07 -1.8626e-41 -3.687e-42
00000000: 0080 b2b0 31b8 efb4 ec33 0080 470a 0080

bias_ih_l3 f4 [2]
0.040800024 0.6952329
00000000: ed1d 273d c9fa 313f

bias_hh_l3 f4 [2]
0.052713763 0.6952326
00000000: 63ea 573d c4fa 313f

weight_ih_l4 f4 [2, 2]
-0.69984937 1.7540046 0.8295725 -0.047628533
00000000: 5429 33bf 3983 e03f dd5e 543f 2316 43bd

weight_hh_l4 f4 [2, 2]
-3.0441245e-06 -6.921792e-14 -4.8528e-41 -2.4443728e-13
00000000: a949 4cb6 6add 9ba9 4787 0080 209b 89aa

bias_ih_l4 f4 [2]
0.90736157 0.15797618
00000000: d948 683f 82c4 213e

bias_hh_l4 f4 [2]
0.9073636 -0.014834095
00000000: fb48 683f b40a 73bc
