fraudrnet.pt (torch_old, 2949 bytes, 20 tensors)

weight_ih_l0 f4 [2, 52]
0	0x8000003f	-8.8e-44
1	0x00000e34	5.095e-42
2	0x00005d76	3.3527e-41
3	0x80002ecb	-1.6786e-41
4	0x80008b04	-4.987e-41
5	0x80003fbf	-2.2868e-41
6	0x800075e3	-4.229e-41
7	0x0000080f	2.891e-42
8	0x000076b9	4.259e-41
9	0x80003fa1	-2.2826e-41
10	0x80004789	-2.5662e-41
11	0x00004316	2.4066e-41
12	0x000028c5	1.4625e-41
13	0x00002b6c	1.5577e-41
14	0x00002937	1.4785e-41
15	0x80007c2d	-4.4546e-41
16	0x8000351b	-1.905e-41
17	0x00002b9e	1.5647e-41
18	0x80009593	-5.3657e-41
19	0x80005dbd	-3.3627e-41
20	0x80003b29	-2.1223e-41
21	0x80009b53	-5.572e-41
22	0x0000ab9b	6.156e-41
23	0x80000bda	-4.252e-42
24	0x0000024a	8.21e-43
25	0x00004558	2.4876e-41
26	0x0000140b	7.19e-42
27	0x80000de2	-4.98e-42
28	0x000063e7	3.5838e-41
29	0x80001383	-7e-42
30	0x800085bb	-4.7973e-41
31	0x80000743	-2.605e-42
32	0x00009f16	5.7069e-41
33	0x8000711e	-4.0579e-41
34	0x800030f4	-1.7561e-41
35	0x0000a020	5.7442e-41
36	0x800034e2	-1.8971e-41
37	0x8000125a	-6.583e-42
38	0x00004219	2.3711e-41
39	0x800040bf	-2.3227e-41
40	0x80000815	-2.899e-42
41	0x80001653	-8.008e-42
42	0x80002daf	-1.6388e-41
43	0x00002ff5	1.7204e-41
44	0x8000648e	-3.6072e-41
45	0x0000bac3	6.6997e-41
46	0x00002b93	1.5631e-41
47	0x80000834	-2.943e-42
48	0x00005e1d	3.3761e-41
49	0x00001f7e	1.1297e-41
50	0x80008123	-4.6326e-41
51	0x00008eed	5.1272e-41
52	0x8000ac79	-6.1872e-41
53	0x00001764	8.391e-42
54	0x80002b8e	-1.5624e-41
55	0x000097cd	5.4456e-41
56	0x00007802	4.305e-41
57	0x80005178	-2.9225e-41
58	0x00002d32	1.6213e-41
59	0x8000268c	-1.3828e-41
60	0x80000357	-1.198e-42
61	0x0000938e	5.2933e-41
62	0x000034d8	1.8957e-41
63	0x8000a7ba	-6.0169e-41
64	0x00007339	4.1334e-41
65	0x000075ee	4.2305e-41
66	0x00009c10	5.5985e-41
67	0x000096d6	5.411e-41
68	0x800080ce	-4.6206e-41
69	0x000016b6	8.147e-42
70	0x000073e1	4.157e-41
71	0x00000d05	4.67e-42
72	0x000073b4	4.1506e-41
73	0x80001ea7	-1.0996e-41
74	0x80000b2d	-4.009e-42
75	0x00000f7b	5.553e-42
76	0x800044ce	-2.4682e-41
77	0x0000737c	4.1428e-41
78	0x0000074e	2.62e-42
79	0x00008035	4.5992e-41
80	0x80007d34	-4.4914e-41
81	0x80003624	-1.9422e-41
82	0x80002ea7	-1.6736e-41
83	0x80005703	-3.1214e-41
84	0x0000b2d4	6.4151e-41
85	0x378f2b02	1.7066955e-05
86	0x00001237	6.534e-42
87	0x000081b9	4.6536e-41
88	0x80002300	-1.2556e-41
89	0x80001fd1	-1.1414e-41
90	0x800090de	-5.1969e-41
91	0x00001790	8.453e-42
92	0x00003a76	2.0972e-41
93	0x00004f75	2.8504e-41
94	0x80002571	-1.3431e-41
95	0x8000069e	-2.374e-42
96	0x800005f3	-2.134e-42
97	0x800073aa	-4.1492e-41
98	0x800054d8	-3.0436e-41
99	0x00001c62	1.0182e-41
100	0x00009d5a	5.6447e-41
101	0x00005055	2.8818e-41
102	0x80009435	-5.3167e-41
103	0x000042f0	2.4013e-41

weight_hh_l0 f4 [2, 2]
0	0x8000795d	-4.3537e-41
1	0x3814f43d	3.5513414e-05
2	0x37a6d888	1.9889572e-05
3	0x80003d8d	-2.208e-41

bias_ih_l0 f4 [2]
0	0x8000252d	-1.3336e-41
1	0x00006924	3.7717e-41

bias_hh_l0 f4 [2]
0	0x00002768	1.4136e-41
1	0x00001121	6.145e-42

weight_ih_l1 f4 [2, 2]
0	0x0000077d	2.686e-42
1	0x0000af9d	6.2998e-41
2	0x800035c9	-1.9294e-41
3	0x00002f32	1.693e-41

weight_hh_l1 f4 [2, 2]
0	0x80000223	-7.67e-43
1	0x000011d8	6.401e-42
2	0x80002414	-1.2942e-41
3	0x00002314	1.2584e-41

bias_ih_l1 f4 [2]
0	0x800009d2	-3.523e-42
1	0x00006c6b	3.8893e-41

bias_hh_l1 f4 [2]
0	0x80000247	-8.17e-43
1	0x00000bd5	4.245e-42

weight_ih_l2 f4 [2, 2]
0	0x00003c65	2.1665e-41
1	0x00001189	6.29e-42
2	0x000002d9	1.022e-42
3	0x0000251c	1.3312e-41

weight_hh_l2 f4 [2, 2]
0	0x80007511	-4.1996e-41
1	0x00000047	1e-43
2	0x000021fd	1.2193e-41
3	0x800025b9	-1.3532e-41

bias_ih_l2 f4 [2]
0	0x00005998	3.214e-41
1	0x0000b860	6.6141e-41

bias_hh_l2 f4 [2]
0	0x80002897	-1.4561e-41
1	0x0000aa02	6.0987e-41

weight_ih_l3 f4 [2, 2]
0	0x80000473	-1.596e-42
1	0x80009c31	-5.6031e-41
2	0x00009a28	5.5301e-41
3	0x80004446	-2.4492e-41

weight_hh_l3 f4 [2, 2]
0	0x80002ae0	-1.538e-41
1	0x800004b2	-1.684e-42
2	0x80000b91	-4.149e-42
3	0x8000639b	-3.5732e-41

bias_ih_l3 f4 [2]
0	0x800007fb	-2.863e-42
1	0x80000e2b	-5.083e-42

bias_hh_l3 f4 [2]
0	0x0000449d	2.4614e-41
1	0x000003fd	1.431e-42

weight_ih_l4 f4 [2, 2]
0	0x000021f9	1.2187e-41
1	0x0000bf62	6.8655e-41
2	0x80004f6e	-2.8494e-41
3	0x80002057	-1.1601e-41

weight_hh_l4 f4 [2, 2]
0	0x0000212a	1.1897e-41
1	0x80003cc6	-2.1801e-41
2	0x80003c1c	-2.1563e-41
3	0x000007ab	2.751e-42

bias_ih_l4 f4 [2]
0	0x385993ea	5.1874587e-05
1	0xb9fe9584	-0.00048558053

bias_hh_l4 f4 [2]
0	0x385993ea	5.1874587e-05
1	0xb9fe9584	-0.00048558053
