fraudnnet.pt (torch_old, 601 bytes, 2 tensors)

weight f4 [2, 12]
0	0xb5590acf	-8.085453e-07
1	0x362d61f4	2.5836025e-06
2	0x355b5ede	8.172191e-07
3	0x38a4beee	7.855693e-05
4	0x37b4c7df	2.1550744e-05
5	0x80002bdb	-1.5732e-41
6	0xb2d5c4b4	-2.4885914e-08
7	0xb5dedd18	-1.6604636e-06
8	0xb65ea24d	-3.317505e-06
9	0x36def5d8	6.6447355e-06
10	0xb4a25b30	-3.02412e-07
11	0xb3a29246	-7.57032e-08
12	0x35ea5d20	1.7461462e-06
13	0xb3cd4420	-9.558448e-08
14	0xb4b027e2	-3.2811573e-07
15	0xb3a88384	-7.847032e-08
16	0xb5b05741	-1.3138416e-06
17	0x0000add8	6.2363e-41
18	0x353d7318	7.057547e-07
19	0x3524e22c	6.1423884e-07
20	0x323da9bc	1.1039841e-08
21	0xb548be86	-7.4783054e-07
22	0x33d353ce	9.840697e-08
23	0x33c4eb2b	9.169738e-08

bias f4 [2]
0	0xb5716c4f	-8.9937106e-07
1	0x37b8f786	2.2049771e-05
