fraudnet.pt (torch_old, 2941 bytes, 20 tensors)

weight_ih_l0 f4 [2, 51]
00000000: 6fd6 15bf 6008 713d 69c9 333f 82cb c73e
00000010: ee4a df3e 6ee2 b3be 61b3 273f 0a05 e83e
00000020: 7b10 003f 4069 603c 896d 093f f9a0 303f
00000030: e84d df3d 808d febd d7f1 1abf 9ef0 00bf
00000040: ce44 983e 0ab8 22bf 3e85 a63e e042 4cbe
00000050: e0cb 223e c80e 4fbe ca47 07bf 6800 28be
00000060: e090 613e 006d 4f3d d4c9 4e3e aeb0 a03e
00000070: 6e5b cf3e f487 ddbe c02b 353c 0063 4abb
00000080: 067b cabe c6a1 f93e 8339 acbe 463f 1bbf
00000090: 3ec7 fb3e 0bc1 aebe be12 c23e 40bd 723e
000000a0: e8d9 92bd 9d85 29bf 0acd f83e e6eb acbe
000000b0: 2a91 f93e 7b0d 16bf 0c27 2c3e d7be 273f
000000c0: 711e 86be f649 8c3e 68d7 073e 6e13 bd3e
000000d0: b1b9 1f3f a243 ee3e 5079 bfbd c2f5 9c3e
000000e0: 62a2 00bf cde2 abbe 617c 8cbe 8095 e5bb
000000f0: be34 16bf 7ae8 7dbe 2b89 b7be d6ea 9abe
00000100: 7ef9 fb3e df2d d1be feea d93e fa53 31bf
00000110: 927f d33e 549c c3be 58af 77be 4b1f 84be
00000120: 50a4 08be 6d32 2e3f 388b bebd ec0c 2abf
00000130: 0251 b5be 5f81 203f bc8f 263e 5e37 f4be
00000140: eb32 babe edc7 0c3f ea48 853e c09e 5f3d
00000150: 207e 16bf 99e5 1b3f 3090 c7bd 6403 f4be
00000160: 96c9 ff3e f74d 25bf 3be8 18bf 0e7a 8d3e
00000170: a4b9 4a3e a8c8 cd3d 42cd 31bf 9363 213f
00000180: 7fff 30bf 2284 be3e 4c12 38be 3208 ec3e
00000190: 50bd 1cbd 2fb3 9abe
-0.58530325 0.058845878 0.702292 0.39022452 0.43611854 -0.3513369 0.65508085 0.45316344
0.5002515 0.013696969 0.5368276 0.68995625 0.10903531 -0.12429333 -0.6052527 -0.5036715
0.29739994 -0.6356207 0.3252353 -0.19947386 0.15898085 -0.20220482 -0.52843916 -0.16406405
0.22027922 0.05064106 0.20194179 0.31384796 0.40499443 -0.43267787 0.011057794 -0.0030881763
-0.39546984 0.48756236 -0.33637628 -0.6064342 0.49175447 -0.34131655 0.37904924 0.23705006
-0.071704686 -0.662195 0.48593932 -0.33773726 0.48743564 -0.5861432 0.1681177 0.65525573
-0.261951 0.27400178 0.13265765 0.36928886 0.6239272 0.46535975 -0.093493104 0.30656248
-0.50247777 -0.33571473 -0.27438644 -0.007006347 -0.5867423 -0.24795714 -0.35846838 -0.3025729
0.49213785 -0.4085531 0.42562097 -0.69268763 0.41308266 -0.38205206 -0.24187982 -0.25805125
-0.1334393 0.68045694 -0.093038976 -0.6642597 -0.35413367 0.62697405 0.16265768 -0.47698492
-0.36366972 0.5499256 0.26032192 0.054594755 -0.587862 0.60897213 -0.097442985 -0.47658837
0.49958485 -0.6457209 -0.59729356 0.27632183 0.19797379 0.10048038 -0.69453824 0.63042563
-0.69139856 0.37210184 -0.1797573 0.46100003 -0.03826648 -0.3021483

weight_hh_l0 f4 [2, 2]
00000000: e2c9 933e e4f9 0abf 910e 30bf dc00 5f3e
0.28864962 -0.5428755 -0.68772227 0.21777672

bias_ih_l0 f4 [2]
00000000: 5aa0 ea3e d283 de3e
0.45825464 0.43459946

bias_hh_l0 f4 [2]
00000000: cedd 843e 6dfb 32bf
0.25950474 -0.69914895

weight_ih_l1 f4 [2, 2]
00000000: be49 a03e ccc9 783e 711d 213f c379 093f
0.3130626 0.2429573 0.6293555 0.5370142

weight_hh_l1 f4 [2, 2]
00000000: 60b2 d5bc 6228 a53e 2635 bc3e 5a65 05bf
-0.026086032 0.32257372 0.367593 -0.52107775

bias_ih_l1 f4 [2]
00000000: 1af6 a13e 6667 ce3e
0.31633073 0.40313262

bias_hh_l1 f4 [2]
00000000: 4cb4 e8be 8e9b a6be
-0.45450056 -0.32540554

weight_ih_l2 f4 [2, 2]
00000000: 5629 d73e 720c c03e 9860 f03d b0ee 3abe
0.42023724 0.37509495 0.11737174 -0.18255115

weight_hh_l2 f4 [2, 2]
00000000: dc8f 373e d947 2ebf 9a35 d03e a0b2 c3be
0.17925972 -0.6807838 0.40665895 -0.38222218

bias_ih_l2 f4 [2]
00000000: 1645 8b3e 23b9 f9be
0.27201146 -0.4877406

bias_hh_l2 f4 [2]
00000000: 0836 b6bd 2045 1fbd
-0.088970244 -0.038884282

weight_ih_l3 f4 [2, 2]
00000000: 28e9 8f3e 3e4e 30bf 859e 0dbf 02db f83e
0.28107572 -0.6886939 -0.55320007 0.4860459

weight_hh_l3 f4 [2, 2]
00000000: 2869 2d3e 30f0 e4bd 7531 093f 6eb7 27bf
0.16934645 -0.11178625 0.5359109 -0.65514266

bias_ih_l3 f4 [2]
00000000: ed49 8dbe 5617 f73e
-0.27595463 0.4825999

bias_hh_l3 f4 [2]
00000000: 5bbc 263f ba8b 19bf
0.6513116 -0.5997883

weight_ih_l4 f4 [2, 2]
00000000: 3a5d 18bf b807 abbe a8c5 b93d 2037 ea3c
-0.5951725 -0.33404326 0.09070903 0.028590739

weight_hh_l4 f4 [2, 2]
00000000: aeb0 ad3e 8a60 d83e 12db 06bf a055 56bd
0.33923858 0.42261153 -0.52678025 -0.052327752

bias_ih_l4 f4 [2]
00000000: 2064 d9bc 407c 73bc
-0.026537001 -0.0148611665

bias_hh_l4 f4 [2]
00000000: c668 93be 9969 a1be
-0.28790873 -0.31525877
